Model: "sequential"
_________________________________________________________________
 Layer (type)                Output Shape              Param #
=================================================================
 embedding (Embedding)       (None, 50, 50)            162300

 lstm (LSTM)                 (None, 50, 100)           60400

 lstm_1 (LSTM)               (None, 100)               80400

 dense (Dense)               (None, 100)               10100

 dense_1 (Dense)             (None, 3246)              327846

=================================================================
Total params: 641046 (2.45 MB)
Trainable params: 641046 (2.45 MB)
Non-trainable params: 0 (0.00 Byte)
_________________________________________________________________

Name of the book: Metamorphosis.txt
Author: Franz Kafka


Training Epochs
Epoch 1/500
788/788 - 33s - loss: 6.4150 - accuracy: 0.0523 - 33s/epoch - 42ms/step
Epoch 2/500
…
